…
s.Adam(clipnorm=1.)\n","model.compile(optimizer=adam, loss='categorical_crossentropy', metrics=['accuracy'])\n","\n","# summarize the model\n","print(model.summary())"],"execution_count":149,"outputs":[{"output_type":"stream","text":["Model: \"model_38\"\n","__________________________________________________________________________________________________\n","Layer (type)                    Output Shape         Param #     Connected to                     \n","==================================================================================================\n","title (InputLayer)              (None, 500)          0                                            \n","__________________________________________________________________________________________________\n","description (InputLayer)        (None, 1000)         0                                            \n","__________________________________________________________________________________________________\n","tags (InputLayer)               (None, 200)          0                                            \n","__________________________________________________________________________________________________\n","title_embedding (Embedding)     (None, 500, 200)     9776600     title[0][0]                      \n","__________________________________________________________________________________________________\n","description_embedding (Embeddin (None, 1000, 200)    9776600     description[0][0]                \n","__________________________________________________________________________________________________\n","tags_embedding (Embedding)      (None, 200, 200)     9776600     tags[0][0]                       \n","__________________________________________________________________________________________________\n","title_conv (Conv1D)             (None, 496, 200)     200200      title_embedding[0][0]            \n","__________________________________________________________________________________________________\n","description_conv (Conv1D)       (None, 993, 200)     320200      description_embedding[0][0]      \n","__________________________________________________________________________________________________\n","tags_conv (Conv1D)              (None, 200, 200)     40200       tags_embedding[0][0]             \n","__________________________________________________________________________________________________\n","title_max_pool (GlobalMaxPoolin (None, 200)          0           title_conv[0][0]                 \n","__________________________________________________________________________________________________\n","description_max_pool (GlobalMax (None, 200)          0           description_conv[0][0]           \n","__________________________________________________________________________________________________\n","tags_max_pool (GlobalMaxPooling (None, 200)          0           tags_conv[0][0]                  \n","__________________________________________________________________________________________________\n","one_hot_category (InputLayer)   (None, 16)           0                                            \n","__________________________________________________________________________________________________\n","clickbait (InputLayer)          (None, 1)            0                                            \n","__________________________________________________________________________________________________\n","concatenate_40 (Concatenate)    (None, 617)          0           title_max_pool[0][0]             \n","                                                                 description_max_pool[0][0]       \n","                                                                 tags_max_pool[0][0]              \n","                                                                 one_hot_category[0][0]           \n","                                                                 clickbait[0][0]                  \n","__________________________________________________________________________________________________\n","dense_109 (Dense)               (None, 200)          123600      concatenate_40[0][0]             \n","__________________________________________________________________________________________________\n","dropout_37 (Dropout)            (None, 200)          0           dense_109[0][0]                  \n","__________________________________________________________________________________________________\n","dense_110 (Dense)               (None, 200)          40200       dropout_37[0][0]                 \n","__________________________________________________________________________________________________\n","dense_111 (Dense)               (None, 10)           2010        dense_110[0][0]                  \n","==================================================================================================\n","Total params: 30,056,210\n","Trainable params: 30,056,210\n","Non-trainable params: 0\n","__________________________________________________________________________________________________\n","None\n"],"name":"stdout"}]},{"cell_type":"markdown","metad
…
